PyTorch/layer.pth (torch, 35276 bytes, 2 tensors)

weight f4 [128, 64]
00000000: c08d c5bd e010 febc bc60 4ebd 1cf2 e9bd
00000010: 4c0c 37bd e69f b9bd 5c7c d5bd 003d a7ba
00000020: b05b ed3d c871 1abd 3093 02bd 3c85 d8bd
00000030: 7e34 b0bd dcea 2a3d 14db 0dbd 9eba 96bd
00000040: 0c1f 1abd 7069 cebd 8e07 8dbd d434 acbd
00000050: f04d 0b3d a8f9 8cbc 945d 8fbd 9e7d 99bd
00000060: 66aa 8cbd 82aa cabd 38dd 9f3d 46fc fc3d
00000070: 361f b93d 0a87 e83d c898 a0bd 2073 b2bb
00000080: 2c18 e4bd 209d 01bd 1044 e6bc 946d ff3d
00000090: b42a c33d 96c3 ee3d 50fa 71bd e8d0 9e3d
000000a0: 4011 473b 7439 20bd 5667 d33d 10eb 083c
000000b0: a81c 423d a6dc 853d 00ca 21bd c08c ef3b
000000c0: a065 b53b 3065 59bd 70ed d33c a2e2 9f3d
000000d0: 6003 cd3d dee7 8bbd a6fd c1bd 5890 233d
000000e0: f0c0 d6bd 980f fb3d 6ab9 d93d 201f 85bb
000000f0: f8a6 e93c 425c f03d e05b 3e3d d895 8ebd
00000100: f09c b23c a8ea 89bd fc43 dc3d f88e ad3d
00000110: 4034 0e3d be72 c53d 1c08 85bd 8821 47bd
00000120: 2acc ffbd fe8d dd3d 78b0 3cbd 72bf ecbd
00000130: 003f 75bd 30c0 4f3d 2c6b 3a3d 20cb 28bc
00000140: 18ed 42bd d446 3e3d 2075 93bb 44d8 8f3d
00000150: b48a b03d f2f7 f3bd e2fb da3d 1228 f23d
00000160: d60c d1bd 18db a8bc 5a0a ee3d 7878 fb3d
00000170: 1c1c 28bd 30ab 323c c064 d93c 10af 2f3c
00000180: d027 893d 54e9 973d c4dc f9bd 0026 09ba
00000190: 60b2 c83d aca8 e5bd 0ced 93bd a037 80bc
000001a0: 20f5 b33c 5082 6abd 6094 733c 90ea 253d
000001b0: 40de fabb 582b cc3c 5415 c43d 34b5 103d
000001c0: 08b7 113d 3658 ab3d 6e8a bdbd a006 113c
000001d0: a489 b3bd de44 dd3d b8cc 833d 74d9 9a3d
000001e0: a443 743d 486d 35bd 3492 52bd 2088 503d
000001f0: 88b9 87bd 50f9 a83c ec78 5fbd 6a33 db3d
00000200: 8459 e63d b8d6 7cbd 201b e83d b873 d8bd
00000210: d22e a33d 84af f43d 1c8c b9bd 5683 e6bd
00000220: 8040 373c 6c49 1e3d e899 b7bc c054 ffbb
00000230: e8e5 a73c 1ad1 c0bd 5e58 aa3d 50ae c0bc
00000240: b297 9fbd 6083 c3bb 3223 e23d 3861 1fbd
00000250: 4c17 49bd 344d ca3d c892 ffbd 16ff e23d
00000260: 7860 e4bd 9299 e83d ae50 923d c095 ad3b
00000270: c8b6 aabc fc54 49bd e096 483d 1ec2 fc3d
00000280: 963c fd3d a0e3 fb3c e023 c73b 22e6 c9bd
00000290: 5415 f4bd 6884 dcbc 6075 403d 42a0 f73d
000002a0: 52d7 bcbd e8d1 cd3d b8e8 64bd 06d5 8abd
000002b0: 40a9 dabd c864 a43c a251 f7bd da0d f53d
000002c0: e8d8 373d 5c3d 82bd 80cd 24bc 5cb0 34bd
000002d0: 48ca 43bd 0c8c a7bd 3e27 b63d e4b5 f1bd
000002e0: e22a 8bbd b4b2 313d f0bd 4dbc 40cc 2cbc
000002f0: 3410 a93d 3a4e e4bd 6aec eb3d 40af 65bb
00000300: 1004 a53d 1c10 97bd 148e 5b3d e435 ea3d
00000310: 48be fcbd f413 81bd 70ca 06bd 5223 a43d
00000320: 0c02 f2bd c414 32bd 503e 82bd 80be 18bc
00000330: d044 febc 02f8 ccbd dcad 8a3d b840 a6bd
00000340: b0c2 443c 0c6f 27bd 16cb 83bd 488b 633d
00000350: 02d2 b9bd 285e b6bd 6058 1c3c 9ccc a3bd
00000360: 10db 74bd ca12 f93d a4dd b5bd b877 f7bd
00000370: cc83 643d 72fd 9f3d 64bb 5dbd d2d6 a23d
00000380: d8a1 c8bc a4f5 ab3d d4a3 613d 647f 64bd
00000390: f0fa f63c 9883 563d c20d b93d e84c d0bc
000003a0: 7a23 f8bd 18ca b0bc a0c6 b5bc dad5 873d
000003b0: 98f7 96bd 601b 6e3c b09e d9bd c05c ddbb
000003c0: 106f 8dbd 18ad 93bd e0cb dbbd b0ed 593c
000003d0: 009d 01ba a8bf 8fbc 447a f7bd c0a4 743c
000003e0: 9604 8e3d 0e88 97bd 380c a63d a07a 9d3b
000003f0: e028 fb3b 7a3b a1bd b0f6 213d d845 dabc
-0.09646177 -0.031013906 -0.05038522 -0.11423132 -0.04468946 -0.09063701 -0.1042411 -0.0012759268
0.11589754 -0.037706167 -0.03187865 -0.105722874 -0.08603762 0.041727886 -0.034632757 -0.07359813
-0.037627265 -0.10078704 -0.068862066 -0.08408514 0.034009874 -0.01720889 -0.070002705 -0.07494663
-0.068684384 -0.09895803 0.07805866 0.12352805 0.09039156 0.11353882 -0.07841641 -0.005445853
-0.11137423 -0.031643987 -0.028108627 0.12472072 0.09529629 0.11658399 -0.059076607 0.077546895
0.0030375272 -0.03911729 0.10322444 0.0083568245 0.04739061 0.06536226 -0.039499283 0.00731048
0.0055357963 -0.053075016 0.025870055 0.07806899 0.10010409 -0.068313345 -0.09472208 0.03993258
-0.10486019 0.12258834 0.10631068 -0.0040625483 0.028522 0.11736347 0.046474338 -0.06962174
0.02180335 -0.0673421 0.107551545 0.08474535 0.0347178 0.09641026 -0.06495687 -0.048615962
-0.12490113 0.108180985 -0.04606673 -0.11559953 -0.059874535 0.050720394 0.045512363 -0.010302335
-0.04758939 0.046454266 -0.0045000464 0.07023671 0.086202055 -0.11912526 0.10692574 0.11824049
-0.102075264 -0.020612285 0.11623068 0.12278837 -0.041042432 0.010905072 0.0265373 0.0107228905
0.06697047 0.07417551 -0.12200311 -0.00052317977 0.09799647 -0.11213812 -0.072229475 -0.015651524
0.02196747 -0.057253182 0.014866918 0.0405069 -0.007655889 0.024923012 0.095743805 0.03532906
0.035574943 0.08366434 -0.09254919 0.008851677 -0.08766487 0.10804151 0.064355314 0.07561007
0.05963482 -0.04429367 -0.05140896 0.05091107 -0.06627184 0.020626694 -0.05455868 0.10703166
0.112475425 -0.06172821 0.11333299 -0.105689466 0.07967915 0.119475394 -0.09059927 -0.11255519
0.011184812 0.03864424 -0.022412255 -0.0077920854 0.02049537 -0.09414883 0.08317636 -0.023520619
-0.077926055 -0.005966589 0.11041869 -0.038911074 -0.049094483 0.098780066 -0.12479168 0.1108381
-0.111512125 0.11357416 0.07144295 0.0052973926 -0.02083911 -0.049153313 0.04897201 0.123417124
0.123650715 0.030748188 0.0060772747 -0.098583475 -0.119181305 -0.026918605 0.046986938 0.120911136
-0.092207566 0.10049802 -0.055886 -0.06778912 -0.10676813 0.020067587 -0.12076117 0.119655326
0.044884592 -0.063593596 -0.010058761 -0.044113502 -0.047800332 -0.08181009 0.088942036 -0.11802271
-0.067952886 0.043383315 -0.012557492 -0.010546744 0.082550436 -0.11147733 0.11519702 -0.0035047084
0.080574155 -0.073761195 0.053602293 0.1143606 -0.12340981 -0.06302634 -0.032907903 0.08014549
-0.11816797 -0.043476835 -0.063595414 -0.0093227625 -0.031038672 -0.10008241 0.06771442 -0.08117813
0.012009308 -0.040877387 -0.0643522 0.05555275 -0.09073259 -0.08904678 0.009542555 -0.079980105
-0.059779227 0.12161787 -0.08880165 -0.120833814 0.055789754 0.07812013 -0.054133788 0.0795113
-0.024491236 0.083964616 0.05508788 -0.05578555 0.030148953 0.05237159 0.09035827 -0.025427297
-0.121161416 -0.02158074 -0.022189438 0.06632586 -0.073714435 0.014532894 -0.1062597 -0.0067554414
-0.06905949 -0.072107494 -0.107322454 0.013301298 -0.00049443543 -0.017547444 -0.12083867 0.014931858
0.069344684 -0.07398997 0.08107799 0.004805878 0.007664785 -0.078726724 0.0395419 -0.026644632

bias f4 [128]
00000000: 08a7 2c3d 80f7 303b 1000 0b3d b2f9 fe3d
00000010: dc2b 363d 76f0 cdbd 9825 1e3d d87f d4bc
00000020: c064 a93c b852 bebd e894 afbc 6600 e5bd
00000030: 6c86 a13d c01e 6cbd 6054 433d aec7 e4bd
00000040: d021 783c 50d5 053c 745d 9b3d 60e8 d93b
00000050: 107e 113c d2dd ffbd c4ee eebd aa6c b8bd
00000060: d65e fc3d c052 823c 1065 40bc fa72 c63d
00000070: d4cd b7bd c8f4 bf3d 982e 753d 52a3 b1bd
00000080: b052 9d3d 8617 ebbd fa33 d93d 1082 ff3c
00000090: 380f c43d 4c7e f23d ac00 b1bd e69e ac3d
000000a0: 14b6 563d 725f c43d 7860 d9bd 4ce6 623d
000000b0: f8c2 c0bd c0ab 1d3b 7a19 8bbd 7022 023c
000000c0: 0015 363c 36a6 ffbd e6ea ccbd 8c4b 17bd
000000d0: 3ea8 f7bd 0061 9e3c a011 aebb 8899 f2bc
000000e0: f480 4ebd 4826 54bd d85e af3c a8d8 bebd
000000f0: 2422 6ebd a076 9b3b 20b9 f0bd d277 8ebd
00000100: 648c 743d 626b c8bd d020 fc3c 6c4d 19bd
00000110: a627 81bd 3456 c13d 9cd5 eb3d 2c8d 48bd
00000120: deab 913d f8ac 773d 6059 e8bd b63d e1bd
00000130: 8040 35bb 5070 843d 609a 8c3c a81f 76bd
00000140: 6423 8d3d 000f 8f3b 54ea eabd 346b ee3d
00000150: 687c cabd 7093 9d3d 209e 433d 683d aabd
00000160: 8848 8fbc 300e 94bd d4a9 a8bd 7868 943c
00000170: c0f9 e43c 30ec 1a3c 6469 f4bd 36ec 85bd
00000180: 3238 b03d 2292 f23d 80d1 0d3b 6c57 97bd
00000190: 0402 9c3d 9047 babd 484a 4c3d 46bd d83d
000001a0: 9c64 453d 18b0 c43d fcce ccbd 40b1 c5bd
000001b0: 62c7 dabd 0022 133b 3c74 b13d 0ca5 f63d
000001c0: 3211 d4bd 160f f83d 945f d8bd 2011 733d
000001d0: 72f4 8b3d dcb9 c2bd 060a d83d 6882 0ebd
000001e0: e460 04bd d425 e63d 30ee 32bc 3886 c43d
000001f0: f0ab 3fbd b037 35bd 2470 ccbd 1a52 f63d
0.04215148 0.002700299 0.033935606 0.12449969 0.04447542 -0.1005563 0.03861007 -0.025939867
0.020677924 -0.09293121 -0.021433309 -0.111817166 0.07886967 -0.057646513 0.04768789 -0.111708984
0.01514478 0.008168533 0.07586184 0.0066500157 0.008880153 -0.12493481 -0.11666635 -0.09005101
0.12322776 0.015908599 -0.011742845 0.09689899 -0.089748055 0.0937286 0.05985889 -0.08673729
0.07681787 -0.11479096 0.10605617 0.031189948 0.09573215 0.118404955 -0.08642706 0.08428745
0.052419737 0.09588517 -0.10614103 0.05539541 -0.09412187 0.002405867 -0.06791969 0.007942781
0.011113405 -0.12482874 -0.10005741 -0.03693728 -0.120926365 0.019333363 -0.0053121597 -0.029614225
-0.050415948 -0.05179432 0.02140753 -0.09318668 -0.058138028 0.004744366 -0.1175406 -0.06956448
0.0597042 -0.09786107 0.030777365 -0.03742735 -0.063063905 0.0944027 0.11515352 -0.048962757
0.07112859 0.06046769 -0.11345172 -0.109980986 -0.0027656853 0.064667344 0.017163455 -0.060088784
0.06891516 0.004365802 -0.11470476 0.11641541 -0.0988701 0.07694137 0.04775822 -0.083124936
-0.01749064 -0.072292686 -0.08235517 0.01811622 0.027951121 0.009455726 -0.11934164 -0.06539194
0.086044684 0.11844279 0.0021639764 -0.07389721 0.07617572 -0.09095681 0.049875528 0.10582976
0.04819165 0.096039 -0.10000417 -0.096529484 -0.106825605 0.0022450686 0.08664748 0.12043199
-0.10354842 0.121122524 -0.10565105 0.059342504 0.068337336 -0.09508106 0.10548787 -0.034792334
-0.032318965 0.11237684 -0.010921046 0.09595913 -0.04679483 -0.04424256 -0.099823266 0.120273784
